example/MECL/REANN_PES_DOUBLE.pt (torch, 586747 bytes, 170 tensors)

rs f8 [3, 8]
00000000: 77e8 9114 3498 0240 ee8f 6e03 49b0 dc3f
00000010: bf18 2929 a1e8 f03f a880 4097 b9df f33f
00000020: 19a1 3050 d00c f43f 8a7d 7a82 086e fc3f
00000030: 8133 c219 e66b 1a40 a8c3 404e b68d 1140
00000040: c2e5 9179 c3e2 d33f f57b e99b 84b7 1340
00000050: 1fa4 f1ca 93ce 1340 3557 7a5e 8411 0140
00000060: 1508 81e0 595a 0540 202e ebf4 3f9e fa3f
00000070: 7e8a b65a ef96 1740 1994 fd27 eb64 0e40
00000080: 0399 9cac b3f2 0740 c983 d5a7 a897 0240
00000090: b8f8 4211 8269 1340 ad21 66f7 5cca 0c40
000000a0: f604 d70d f800 ff3f b341 8477 f166 0440
000000b0: 0424 1a2f 9c2b dd3f b5b1 4d7e 04e4 0d40
2.324318085387002 0.44825959525246517 1.0567943198998788 1.242120352581006 1.2531283504886856 1.7768635842147398 6.6053699517041204 4.388390753462694
0.3107155501562283 4.929216800809617 4.951735659597971 2.133553255184689 2.669116739213687 1.6636352126250884 5.897397439376276 3.79927664988146
2.993506763962729 2.3240521537813703 4.853035230362529 3.5988101318400454 1.9377365627881864 2.5502652489887736 0.4557867488843501 3.7363366954288844

inta f8 [3, 8]
00000000: ef29 da09 222d e8bf f44d accd 7fce e5bf
00000010: 14f0 3fec f302 e4bf 4863 a396 5028 f5bf
00000020: 1c29 78b5 d8f5 ecbf dcb2 3dbe 1ca0 f7bf
00000030: 8136 7128 83ef e8bf 3a80 9015 b9ec d2bf
00000040: 712d d005 aeaa f0bf b048 c57a 5306 d3bf
00000050: 6bd5 87b8 a07d d5bf 2c32 b313 7096 e2bf
00000060: 0397 daf1 f2cf dbbf 9b11 c9cf 1790 e8bf
00000070: 3525 b09b c5ce eabf adea 67a0 4a30 eebf
00000080: 3363 0988 4746 f0bf fb51 9832 e570 e9bf
00000090: 9ef2 e0a8 19aa e2bf e69c 9975 0ef3 ecbf
000000a0: 7dcb 3f72 ecd7 cbbf 6284 cd79 3a0f e0bf
000000b0: a5a7 e67b 7d49 e3bf 9fc0 97f6 00ea d4bf
-0.7555093948770358 -0.6814574257900277 -0.6253604521039073 -1.322342480116463 -0.9050105614017272 -1.47658991158385 -0.7792373456847629 -0.295698424395599
-1.0416698672368876 -0.2972611140186343 -0.33579271336141997 -0.580863989330799 -0.43456719988385845 -0.7675894792851524 -0.8377407112867902 -0.9433949597290244
-1.0171580614025515 -0.7950311649497616 -0.5832641886150502 -0.9046699807048781 -0.21752696589063794 -0.5018589381180727 -0.6027209682408637 -0.32678245621992547

params f8 [3, 8]
00000000: 9fa3 a5dd f055 c83f d298 d9a9 26d2 d73f
00000010: c620 0f65 35ee d23f 16dd f73a 3d99 c63f
00000020: b714 bec3 35e5 ce3f 72e9 8a07 0616 b43f
00000030: f682 366f 1ec4 a33f 0779 4642 4f56 d03f
00000040: ebca 8e66 df80 78bf b1ec fe72 b48a c53f
00000050: ae58 a24a d65a d0bf 6c99 9994 01c6 c73f
00000060: 1475 f920 65b0 c43f 6700 742f b34a cd3f
00000070: cc5b d36f 8136 cebf 0e44 79e5 d7a0 df3f
00000080: 1682 bb7f f066 c03f 741d fb76 a1ef c83f
00000090: 59e3 a999 4800 a4bf 3223 fd70 acc1 823f
000000a0: 4ad5 4f5e 32fa 963f 82a8 7db5 a135 97bf
000000b0: e37d 5f79 4a24 d83f a17f 5432 46cc 83bf
0.19012270758255753 0.3722016009036341 0.29578909749080784 0.17655148867900355 0.2413699346326774 0.07846105274339779 0.038605643344686344 0.25526792022891737
-0.005982277544648733 0.168295437002461 -0.25554425514691104 0.18573016887530558 0.16163314924316607 0.22884216134116572 -0.23603837928996396 0.494192098708539
0.128141462678301 0.1948129492723002 -0.039064663656012306 0.009158465574402894 0.022438799864138027 -0.022665526106188334 0.377215021637282 -0.00966696587653343

hyper f8 [3, 3, 8, 108]
00000000: 338b 9192 4e8d bb3f 899f d39f ff00 d4bf
00000010: e0aa 6992 ec05 a6bf 166b a725 914b d3bf
00000020: 2b79 e897 dc77 d03f dae2 b18d ae18 d43f
00000030: e4ce fc66 1606 d23f 941d aced 94b1 d1bf
00000040: dfd3 ba99 ee12 d93f 9a1e cbfd e7ea a23f
00000050: ee80 09cf b0a4 de3f b328 e23e e208 dabf
00000060: abdc 4930 c825 d1bf b56c 2b9f 175b a7bf
00000070: 435a 75c8 1651 c8bf d093 3dfe 572d 963f
00000080: bcf3 0b41 85a0 c6bf c432 648d 5888 c3bf
00000090: ca32 e7b9 b94e 5dbf 30fe 29a2 1a5d 813f
000000a0: 6682 38ad 3a27 d4bf 1d3c ab70 be9f c83f
000000b0: 3143 a7a6 748a d1bf 45ff 8fe0 ad71 cdbf
000000c0: 2a13 b0a7 5700 c93f cff3 3fef 77a4 a5bf
000000d0: d6c7 2df9 fe6a 44bf de80 8e4d 3f2a c93f
000000e0: 539c 6239 34d2 bdbf b339 6d0c a717 af3f
000000f0: f0e8 51ed 8d4f c0bf fc26 739e 1f0d c73f
00000100: fe34 7ca7 1fec ae3f 36e7 c459 5f5b 923f
00000110: 6146 fead e5ae ca3f 8a11 84d0 6703 d83f
00000120: ce22 c6e4 ee3d b03f e041 1634 b9c3 cbbf
00000130: dada 0a36 d85d cabf 2a17 7849 8f89 c43f
00000140: 5930 eda3 b809 cabf 6ee4 d26c 0e74 c2bf
00000150: 2783 8558 1f12 c93f f461 8b60 eb27 a23f
00000160: ea0f 9c3e 2588 363f d5b4 a1b4 1bff 953f
00000170: 17f2 7341 a21f bd3f a472 7801 b076 b33f
00000180: bd87 2dfc d4cf c53f 1591 d186 b80c c7bf
00000190: 97b2 9166 6d7a bebf f8e3 dc1d b916 a7bf
000001a0: 5358 6073 5657 e2bf 5121 c254 7937 c7bf
000001b0: 1b18 8929 8634 b03f e13c a9d1 f589 9cbf
000001c0: 6faa e9fb bab9 993f 4fa3 3340 2df2 e0bf
000001d0: 9f83 d002 cf0d d13f f70a e5e6 6ccf ab3f
000001e0: 34ce 99c8 35d7 c53f db6f 90e9 6934 dbbf
000001f0: 6ea9 3762 41d6 933f 0d5b c9d6 77f0 d2bf
00000200: 75eb 5640 d72d a2bf 0970 cd06 7210 d8bf
00000210: 5fc3 9092 c3c9 c43f f63b 1d92 7af2 383f
00000220: 89dd b739 aa32 a63f 56f6 2a41 6062 a03f
00000230: 47b4 e894 ffd1 cebf 9f68 8973 6c5e 53bf
00000240: 73af d810 1559 c2bf a207 70aa c7fb 98bf
00000250: 046a defe 065c 1fbf 0eb6 e9ed 1871 d23f
00000260: 5637 a158 3b9e 55bf 8dc0 0229 461d 00bf
00000270: 4c12 8db5 7eba d6bf 44c3 8524 21b9 d0bf
00000280: 8e31 2d22 1de4 b03f e287 c972 3c59 1cbf
00000290: 0d89 76cb 0c18 bebf df22 c96a e6bf c4bf
000002a0: c096 efd3 b8f4 c3bf d58e b8da dae6 b73f
000002b0: 4642 933c f63d cabf 1eba 91ba 26b3 99bf
000002c0: 2d04 4184 2c05 c7bf c5bc 7053 478d acbf
000002d0: 9773 9f21 dd63 b63f db77 2ca6 8a0f 29bf
000002e0: f938 cb53 16a0 d73f ce68 45e4 4874 673f
000002f0: 0d65 ed8a 6bf4 c73f 8f9a f995 a6c2 c6bf
00000300: 6f24 92b9 dc9c 99bf 59ab 99a6 cfaf bf3f
00000310: 5285 8cf6 280b 87bf 6edd 6d54 bd3f 94bf
00000320: 9149 b4df 1fba ce3f d1ae 0709 f0c4 b03f
00000330: 016e 8c7f 35ee b53f 3e89 6b72 2645 c0bf
00000340: b294 83e3 12aa a3bf 535c 8eb1 657c c23f
00000350: 59cb baf6 d417 c53f f8f1 36f2 5920 80bf
00000360: 5ec6 1d0c e974 cfbf 6854 0c90 68d0 a7bf
00000370: ea46 4df9 598e d03f 0c8b c743 3ce5 aebf
00000380: 0c7c 0056 3c0b c7bf 94f3 99bd b5fa b13f
00000390: f3f7 5942 70a0 acbf 812b 3872 9549 89bf
000003a0: 0b6d 8131 1f75 c3bf 911e 9dff cf46 a7bf
000003b0: 557c 7157 6511 bcbf f9b2 dddc 6b83 a43f
000003c0: 9526 17ff bc39 a2bf 0f4e 858b 93b5 9c3f
000003d0: 8fb7 9a90 799e 79bf 1e55 2520 3ccb 523f
000003e0: 0c35 5b6f ef97 a23f 61c0 f000 0bf6 a63f
000003f0: 17d5 206f 79a7 52bf ead7 2409 1284 763f
00000400: 0016 53ca 2d9f c1bf fe2e 504b aa1b c9bf
00000410: 2ede 1e91 5610 bfbf acf4 a7ac 5bac ca3f
00000420: 42b2 32e7 04ba 8e3f 79b6 dcca 6887 c63f
00000430: b693 fd57 dc29 683f cf7d fba1 d945 b83f
00000440: 5ce4 7943 3e42 ab3f cb21 a410 9846 d2bf
00000450: 6b2e 23b5 39f3 d3bf a5e9 a72e 0412 b0bf
00000460: 9b58 c66f c500 9abf 97b6 7505 68dc c63f
00000470: 87d7 a8bc b442 bfbf 20ac 4d07 6a3b d3bf
00000480: 24d0 b009 7f3d ca3f 3b70 c4dd eaf1 8a3f
00000490: 1e7c 71d7 23fc a6bf 4937 3d9e 3a6e dc3f
000004a0: b3c0 7328 7a61 d1bf 8a20 743b 20bf cb3f
000004b0: 3fdc 9569 6f30 c2bf 5d45 1f4c fd88 bd3f
000004c0: 3a51 638a 8442 3a3f 3568 c8fb 35e7 bbbf
000004d0: 3b96 3a43 6e2b cc3f 6a86 8a03 d3fa c5bf
000004e0: 7a41 e180 836e b4bf 98c9 8493 e2bf ad3f
000004f0: 457b 72cc de42 c1bf 3d3b 508e 0876 d53f
00000500: 21ae 583b e80b bd3f 7c4e f693 6633 acbf
00000510: 19e0 a6a1 0ed5 bdbf 5366 b32c 9f8b 933f
00000520: bd86 1063 8f31 aa3f e647 e11e bdd7 a93f
00000530: 1406 59f9 9557 d0bf c6ed 284f 8e5f c0bf
00000540: 3644 f0e5 d742 a0bf 3c10 00bb 2ca2 a83f
00000550: c993 5b1c 6359 da3f 3134 91fd 7c54 cf3f
00000560: ef7c 8841 bb46 babf ce66 f5c9 f5a0 a03f
00000570: 7ba5 c5e5 14f4 a33f 5e39 3ea1 bb5b 23bf
00000580: 3ebb 2fad 26d3 b73f 36ff 3dea f15d aabf
00000590: 4149 cf50 8f6b b4bf 29cd f9c9 106d 563f
000005a0: 3c06 f698 3d58 b43f 014b 8de6 c83b 993f
000005b0: c83b eccf 483a 4a3f 808d 7612 5382 823f
000005c0: 8489 d54f 0c01 393f caf2 d0dc e9af 21bf
000005d0: 1f59 4fbc 0882 c03f ba4d 846f c2b7 c13f
000005e0: 6483 9125 2827 cabf 9c46 3909 c1af 223f
000005f0: 465d ec2e 6695 b4bf e577 7c75 c801 9abf
00000600: abfd 0d3c c01c cb3f df63 1132 7089 c1bf
00000610: 51a8 df50 d256 c6bf f5ec 1b33 9e28 c0bf
00000620: 006e 9a87 9af0 d8bf a7a7 e8a6 2c3c c0bf
00000630: 5824 67af 4c07 a8bf 9d29 ed9a 8fa0 52bf
00000640: 2f2d 858c 089e c6bf e23f 0f32 c47d 83bf
00000650: 19ff 4f6a de85 cabf 5d0f 40aa e327 953f
00000660: 638a 5d99 6310 a03f 3583 8de6 1bca a53f
00000670: 0f41 0ac8 595c a23f 36ca 20e6 9872 c03f
00000680: a060 93d5 78ce d03f e28d e018 267d c5bf
00000690: b3c7 baa6 f601 d33f beca 11e3 0611 d03f
000006a0: b526 6a68 1745 d13f 4b59 a4f5 689d b23f
000006b0: 2ce5 91d8 2ced b0bf e3ff f3ba 8ce3 c03f
000006c0: 4f4f ff2e 0468 bc3f 4b90 16c2 4b8c c03f
000006d0: da69 148a 3065 c03f 23c2 5f3c 601c 8a3f
000006e0: db45 2c07 0cbd b2bf df88 d967 d9db cabf
000006f0: 2b20 3683 fcf0 5e3f ba7e 094f 77f1 adbf
00000700: eb69 6d12 7646 bc3f c34c 0bb5 3c85 b6bf
00000710: b5fc 9330 19eb 9e3f ffad 1d20 b1c1 c13f
00000720: 111e ba1e 740c b93f d1c1 dcf5 8ca7 d7bf
00000730: 17f1 6bf6 f4e9 b83f d858 1021 b8ea 6b3f
00000740: 12c7 192d c731 c23f cbe2 aeee d916 a4bf
00000750: ca62 b2c6 7974 81bf 91a9 393f 0512 9d3f
00000760: 8710 e97b 2fe8 9bbf a919 eb7b 5c18 c2bf
00000770: 4652 87d9 2075 a3bf 4542 a59b 805e ba3f
00000780: c2ab dbed 4c89 cdbf 9886 dbd0 aef2 c53f
00000790: 920f 23ad c634 883f 74ba 6eef ccb0 8e3f
000007a0: 708c 45e3 c67d 6d3f 0e91 3fd6 8594 c0bf
000007b0: 9141 703f 3a6d c63f b96d 3a6d 768b b53f
000007c0: 7766 6837 96d4 ab3f 78f1 c799 0bdf c5bf
000007d0: 31b7 1a5b 011e d13f c5e3 e239 1567 83bf
000007e0: c152 6555 a6ac 97bf 3d72 f8cf 28d8 c9bf
000007f0: f820 fb6e 7ca6 b03f 3bb9 1eef e474 c23f
0.10762492254575022 -0.3125609455878409 -0.04301394736542874 -0.30148724248071923 0.2573157771565941 0.3140064605463927 0.2816215520608536 -0.2764637299555599
0.391780519606355 0.03694844220222855 0.47880192011326883 -0.40679222241363816 -0.2679310294692622 -0.045616853885542076 -0.1899746397782157 0.02165734757672394
-0.17677369762523465 -0.15259844688298163 -0.0017887891514078318 0.008478363107541659 -0.3148943606957232 0.19237499715242815 -0.2740756633257205 -0.23003171410527493
0.1953229492939042 -0.04227042003183323 -0.0006231064784130113 0.19660178458162297 -0.11648870850568586 0.06072732950871131 -0.12742780769242001 0.18008799778754525
0.06039523047921057 0.01792668328673771 0.2084624385429832 0.37520785677795543 0.0634450253038594 -0.21691050570781467 -0.2059889091376224 0.16044798934324805
-0.2034216690466362 -0.1441667586675836 0.19586555311527684 0.035460811171734635 0.000343808262741384 0.021480973148233346 0.11376394365283492 0.07602977786923276
0.17040502847072317 -0.1800757082265895 -0.11905559305314238 -0.04509523858582293 -0.5731613400882999 -0.18138043058957945 0.0633014537243927 -0.02787002651376447
0.025122567773375012 -0.529562592882124 0.2664678122983392 0.05431690519846726 0.1706301908012492 -0.42507407959942406 0.019372007007328156 -0.2959270093464717
-0.03550598774332673 -0.3760037485533308 0.16240734726445802 0.0003806637997642576 0.04335529284065404 0.03200054927354461 -0.24078364153811746 -0.001182180318343863
-0.14334357569293452 -0.024397964265524437 -0.00011962692926063145 0.28815291627583484 -0.0013194636872131036 -3.073568689282531e-05 -0.35513274888606783 -0.2612994057335991
0.06598074039829369 -0.00010814124534300155 -0.11755447356566524 -0.16210632528443278 -0.15590582226211858 0.09336631622187082 -0.20501592595839407 -0.02509747041443166
-0.17984539468491914 -0.05576537030753451 0.08746130057211442 -0.00019119803899852916 0.36914594824783326 0.0028630660691933768 0.18714660914955808 -0.1778152687358738
-0.02501244433054633 0.12377641503705429 -0.01125175478370247 -0.01977439716162393 0.24005506918963396 0.06550502987345942 0.08566603054025991 -0.1271102961246217
-0.03840693499822957 0.14442130250674498 0.16478979155871334 -0.007874205307296642 -0.24575532046906096 -0.04651190527344157 0.25868844362149324 -0.060342677377567794
-0.18003038596450016 0.07023177985133905 -0.05591154870943162 -0.012347381160926709 -0.15201177518142858 -0.04546213145527845 -0.10964043984266543 0.04006516524427712
-0.03559675802132493 0.028036408796948516 -0.006254649031388739 0.0011470877803579425 0.03631542429284637 0.04484590898971486 -0.0011385618095237132 0.00549704594805254
-0.13767025355461726 -0.19615677525904823 -0.1213430504129682 0.20838495188210027 0.015003240876773852 0.17600736527804253 0.002949648245634563 0.09481582836769252
0.05323977063830718 -0.2855587160597934 -0.3117203015251337 -0.0627749074846294 -0.025393567034904235 0.17860126749603886 -0.1221116028399064 -0.3005013533899632
0.2050017163579706 0.013156733410646484 -0.04489242558405969 0.44422784283675704 -0.27157453489690936 0.21677019980439055 -0.14210312514816967 0.11537154301119786
0.00040069328168825284 -0.10899674794237131 0.22007540018710067 -0.17171704934030468 -0.07981130501253189 0.05810459185376543 -0.13485321982167356 0.33532918832581854
0.11346293877493753 -0.05507965618303687 -0.11653224417284526 0.019087302306479547 0.05115936359676485 0.05047408105805555 -0.2553458151852237 -0.12791613450268197
-0.031759974306745084 0.04811229498594158 0.41170575875576937 0.2447658765908343 -0.10264177656107497 0.03247802820506039 0.03897157006106063 -0.0001476923504210676
0.09306565979180179 -0.051497993320479926 -0.07976623270886753 0.0013687766985668959 0.07947144493484698 0.02464212329079896 0.0008004050758659781 0.009037636757802003
0.0003815321977837171 -0.00013494233863466646 0.12896832651922183 0.13842039532810962 -0.2043199714126117 0.00014256698033192773 -0.08040465016926132 -0.025397426768101545
0.21181490833622027 -0.1370067829582515 -0.17452458332928925 -0.12623956199227107 -0.38968528025154114 -0.1268363776192107 -0.04693069115780507 -0.0011369135279034389
-0.17669779645289327 -0.009517224099823755 -0.20721035185851447 0.020659978166818294 0.03137503859649795 0.042557594197893435 0.03586082999129491 0.12849723088000226
0.2626020513248566 -0.1678817388029606 0.2969948414057583 0.2510392396426758 0.2698420066522929 0.0727143859588512 -0.06611900603629256 0.13194426659174416
0.11096216342349162 0.12928149201354908 0.128088061734913 0.012749435274572346 -0.07319712805863025 -0.20983426638401334 0.0018885103171175737 -0.05848286475952365
0.1104501528729213 -0.08797053737662268 0.030193704214067824 0.1387235075775237 0.09784627676173609 -0.36960147867196463 0.09731989875939849 0.003407821299798202
0.14214410497839275 -0.03923684157002113 -0.008522940994497036 0.02838905523678076 -0.02725290483273615 -0.14136844683362185 -0.03800299315813453 0.10300449180545808
-0.23075257887043504 0.17146859357949462 0.011819412382813064 0.014985657746220606 0.0036000141646340064 -0.12953255616515275 0.17520835969527274 0.08415928045945166
0.05435628343930159 -0.17086930283393165 0.26745637795362415 -0.009473958806084934 -0.023119543993135098 -0.2019091620903896 0.06504037580009825 0.14419233012945107

cutoff f8 [1]
00000000: 0000 0000 0000 2040
8.0

initpot f8 [1]
00000000: 0000 0000 0000 0000
0.0

weight f8 [32, 108]
00000000: 8a81 5347 23cb c0bf f1c4 a052 fa95 b1bf
00000010: 4360 1689 327d d33f 8ca9 0ed3 c211 c23f
00000020: 1ea0 3a70 7cde c6bf 082e fed6 143e c1bf
00000030: a8ab aa9a aa95 d1bf e6cd 44a4 802c d13f
00000040: d557 ddd8 c344 d93f 5832 e479 a2bc d93f
00000050: e133 8b5e 6eee d2bf 1883 bcb0 cd46 cdbf
00000060: c50c 5368 5cdc b5bf 1b80 94e7 d091 b0bf
00000070: 33e0 c78e 0469 ca3f fa2c 6e22 7b1d afbf
00000080: 5616 1747 b521 e13f 514e 547c ef65 92bf
00000090: 1808 eba5 8582 d0bf 1697 8124 ecd0 af3f
000000a0: 34a5 8b9e d52f a63f 68a2 15aa d428 bc3f
000000b0: f5af b77c 1a92 a63f 7446 62e8 745d c8bf
000000c0: f475 8e1f bfc1 963f 043a 8e20 5e73 d3bf
000000d0: 830d ca6b 3276 90bf 53a1 86c9 e0e1 b43f
000000e0: 3e1f cb3e d504 db3f bf47 c857 08af dbbf
000000f0: 01a4 4d0a d861 c9bf 9a84 727f a15b a13f
00000100: ec1d 3cba 7e03 8d3f 463a 26d1 3730 c5bf
00000110: f28d a0a9 7641 a4bf 4773 f473 e2ed ba3f
00000120: 643c d91c ae66 cabf e24e bfcd 7a05 783f
00000130: bf8c 9a69 3524 aebf b03b 28f9 2d6f b4bf
00000140: a2db fa32 f4f6 453f a31f daa8 685a d4bf
00000150: 5e7f b650 833b cabf 853c 8e4f 739c c7bf
00000160: 2f34 1b34 9453 bb3f 7905 0283 a385 bfbf
00000170: 042a 460b 72dd c6bf 8e9f 04c0 160b db3f
00000180: 8c51 6c0c 24ea ca3f 1d1d 193a fd13 e03f
00000190: f1b2 05b3 8143 b33f f64f 04e3 fa8f d0bf
000001a0: fe01 7312 2e5b d03f c6ad 11d0 5607 c03f
000001b0: e059 d146 6932 dfbf 0e24 e912 8ebf a2bf
000001c0: 4002 1b9f 96f7 bfbf 7974 daab 6510 c8bf
000001d0: 48b9 87ab 3e09 c03f 2587 48e1 5240 ac3f
000001e0: 54ae 14e8 0b02 c93f cedb d5e7 19ac c43f
000001f0: 3e3f 7894 f6e2 b9bf cea0 a410 5b46 c1bf
00000200: 11ea 8ea4 cf11 c1bf 19b5 096f c4c9 c0bf
00000210: d43f c6c7 b236 94bf 6196 d796 8717 c23f
00000220: 948e 3af9 ae20 aabf 8ee6 b247 2e76 c03f
00000230: a88f 992d 441b c0bf a018 6353 5d1c c43f
00000240: f624 e8e8 56fd bdbf 7116 dfa7 057e df3f
00000250: b1e0 6b15 cc9d bcbf d1df 77a4 e398 c33f
00000260: 2cb4 287c dd6e c13f d1a3 d79a ca79 d53f
00000270: 8a56 5832 0e03 dd3f 0f27 7af3 432e c6bf
00000280: ca6b fe16 1f3d a03f 735f 625a 5cd1 bfbf
00000290: 6088 c1b7 5355 c4bf c3cb d3c1 fe4e bcbf
000002a0: c0de 3790 7568 c4bf 2297 2b7e e722 c9bf
000002b0: 3c9d e524 b46f d1bf ecba f341 c0db 83bf
000002c0: 58bd 7825 a6f3 c3bf df15 f900 7b2b 7f3f
000002d0: a414 7b97 15c7 a0bf 3183 da85 0de8 9b3f
000002e0: debc d175 c4e1 a9bf c332 48d1 e2de a53f
000002f0: 9652 c582 0212 9bbf f188 176d ecbf a43f
00000300: 97d4 319a 7169 983f b100 e337 2256 a53f
00000310: 98e6 3a86 6965 d33f a5ce 9276 7d02 a2bf
00000320: 1c4b bba5 6212 a3bf 2a73 19b2 0361 bbbf
00000330: 4895 9113 5e23 c0bf d7d3 1a96 8a3f cdbf
00000340: 4420 80b5 fb9a 9b3f 7251 1a6a 9876 cebf
00000350: acde b978 4d2a dc3f c78e 8f19 9339 ca3f
00000360: 3947 3b65 0bfd 85bf 0a81 d14d 2d1f ba3f
00000370: f815 54b4 18a0 c23f 028b 859b d3dc c03f
00000380: 7a91 f92c 5033 473f 3d87 68b0 8c6f b13f
00000390: 3b2b dab0 9ce9 c1bf bec7 22fe c88f 853f
000003a0: 507f 6cac c49e d03f 6247 9149 b80e bfbf
000003b0: 2c68 d937 e1d1 c53f 68da 6ffd a7d5 af3f
000003c0: 60e9 4400 a304 bf3f 33bb bbf1 8797 c0bf
000003d0: 15e3 75cf 11fa c33f 14fc 58c6 ba8a b5bf
000003e0: eef9 2ff5 c93f cd3f 812f e520 da62 62bf
000003f0: a0e0 263d 3542 683f 2e8f 5e89 59ab a73f
00000400: 68a5 8089 566d ac3f 0810 e5a3 ef09 c1bf
00000410: c232 e72b 2086 b03f 376d fe60 b5e4 acbf
00000420: 2d86 2906 395c c5bf 73fd b7b0 7256 a23f
00000430: 5c10 75cb af07 d03f 6e97 5e44 8f31 c5bf
00000440: 3e60 a9ca f83b b23f c614 06eb 6cbd b8bf
00000450: 5982 e85e 29a8 a0bf 103a db6f 5994 b1bf
00000460: bc97 13c2 ec91 c4bf 29fe abc6 3cfa d1bf
00000470: 928b 8791 383a b5bf 48d7 c94d ec5d c43f
00000480: a052 893e 6873 b7bf c888 e813 7d41 d3bf
00000490: be97 6d2f f05c babf bcae 9a13 ad47 adbf
000004a0: 11a6 3ca2 4221 c3bf 7aac 928b 5283 cabf
000004b0: 957c 370f 2b1d d4bf d525 1d24 2f27 dbbf
000004c0: 6e19 71a6 9f6e bbbf fdac cf01 2d32 f2bf
000004d0: 611e 672d d7c1 bf3f ae92 88aa c2a8 c33f
000004e0: 3bfb 913f 34bd b8bf 3449 a9f3 32cb 8fbf
000004f0: f184 e257 e95a a63f 1208 2f28 52e7 993f
00000500: 8aba 6a9e 075a cdbf 2394 6294 551e ca3f
00000510: b018 c1dd 9c17 d4bf 5c80 a429 f461 b23f
00000520: 9b65 cdd5 065f b7bf f3b5 9e80 019f b73f
00000530: cb3b 9708 4028 d2bf 0ce1 816f 866c a03f
00000540: d1e0 b714 2c8c bc3f 210d c6fc 11ad a03f
00000550: 76d9 c2e8 ed64 343f 66da 6bd7 6f86 d5bf
00000560: ffdc 5169 f261 cabf 662c 1a0d f646 c23f
00000570: 54d8 2dc7 7e56 933f f717 e584 877f cdbf
00000580: 0e45 8e3d 72b1 cbbf 6653 490a ac22 c83f
00000590: 56c4 f9a6 2748 c9bf dd9c 79be ce0a 2e3f
000005a0: 9ab8 9a48 1d47 80bf 0db2 0617 8f5e c03f
000005b0: 147e f23f 9a5e a0bf b111 9673 2f6e 70bf
000005c0: 603c 3baa d45d c23f 5edd cf45 667d 9b3f
000005d0: 1665 cd55 1955 a7bf ec29 3a4b adc3 b8bf
000005e0: 458f 3307 a1a8 b93f 4afe 4a8c ab85 d4bf
000005f0: 665e c312 3587 dabf 7588 39e0 0dbd 6abf
00000600: a70b 60b6 3b2b c1bf 901f 9137 00d3 b2bf
00000610: 119d ce39 b52a adbf 04df 3a8c 4197 a53f
00000620: 2ca3 fa2e b2c4 b6bf 6582 d594 b27b cd3f
00000630: 6586 9eec d168 d7bf 7544 d1bd 9c11 ccbf
00000640: bfaf a5ad fdf1 c0bf 9a99 5a22 b140 af3f
00000650: b45d efac 0871 d7bf 0d38 2a49 0ca6 833f
00000660: f1b6 b939 f6f2 adbf f37c 6779 1db4 b4bf
00000670: 666e 07f3 0032 d03f 4dc2 57fa 266a c3bf
00000680: f7ce 3956 9c0f c5bf ab04 712a f24f d0bf
00000690: 2f04 3c8a af46 b4bf 2802 171a 9040 c5bf
000006a0: b7a5 d68c afb1 c3bf 9241 0710 02aa d8bf
000006b0: cf29 c38c b0d2 c6bf 02d3 262b 5e9f c5bf
000006c0: c38f 36be af88 a0bf a029 ed49 9a01 b73f
000006d0: 9153 e054 e052 a4bf 3156 0cf4 69ad b4bf
000006e0: 0137 aa7a 6a13 b0bf 682e 7e4d 5ac6 ba3f
000006f0: b817 e632 6512 b8bf cd74 9176 b79a c53f
00000700: bcae 2302 6bee c4bf a3c8 fe1e c3cc c2bf
00000710: 55c3 d3fe afcc 90bf 138f a9d7 6288 bbbf
00000720: b049 332e c92d c5bf 1df0 b4a8 f161 953f
00000730: e4db 921a b710 b9bf 570d 19b7 2c92 a1bf
00000740: aeca 069a e813 893f 8aea 3769 3b41 a1bf
00000750: 5b87 27cd f7ab 66bf 7e60 f559 43f7 a2bf
00000760: 300a 33e4 e4da c4bf 81ad 5c12 cefb c03f
00000770: 5132 8067 7a6c babf 1344 f350 e491 a83f
00000780: 076d 4e80 9f46 c13f 9034 fb7b 0630 a53f
00000790: 66c6 bd77 2089 b8bf 42ce 482e 0f36 aabf
000007a0: f048 fd1a 6e3b bfbf bb60 5ee1 94fe 9abf
000007b0: 94fb 4831 fbad 91bf 3ccf dcb5 6e41 b8bf
000007c0: 8cc9 17f8 ba8e b73f 1171 d829 8362 b0bf
000007d0: 91ec a435 6b41 a2bf 1423 e1c4 55f2 a33f
000007e0: 73f2 7ca7 a887 babf 92a7 e039 b601 c53f
000007f0: 0f37 d68c 360c c0bf ad52 f6dc 0663 a8bf
-0.13119927389835723 -0.06869472996983796 0.3045164431328013 0.14116702371150003 -0.17866473655635756 -0.13470707414340688 -0.27475991348426954 0.2683412174403358
0.3948220842188424 0.4021383467050206 -0.2958026812819395 -0.22872325067239596 -0.0853936915109897 -0.0647249760991148 0.20632988902775792 -0.06077179713528298
0.5353647602539222 -0.017966978038272356 -0.25796643450678536 0.06214082666046587 0.04333369789476152 0.10999802734807818 0.044083430980975814 -0.1903520712553931
0.022223459530882964 -0.3039164846349254 -0.016075885609564643 0.08157162590089699 0.42216998226330193 -0.43255814144606214 -0.19829845908250834 0.03390221291307079
0.014166822489200613 -0.16553399765367 -0.03956194706577411 0.10519233065538201 -0.20625854881879768 0.005864600851015674 -0.05887000002010145 -0.0798214658063745
0.0006703083399405183 -0.31801811685044806 -0.2049411911111702 -0.18446198830176655 0.10674406311154948 -0.12313291500506364 -0.17863297987453575 0.4225518107582439
0.21027041060063956 0.5024400839546704 0.07524881954823194 -0.25878784341443806 0.2555651836555909 0.12522397193548168 -0.48745185771750066 -0.036617698486743774
-0.1248716486397905 -0.18800040141369204 0.12528212905403735 0.055178251266865076 0.19537495452947218 0.1615021116265027 -0.10111943363903905 -0.13495958626413657
-0.13335605177947277 -0.13115744992993753 -0.019739907687437455 0.14134306779230868 -0.05103060524313921 0.12860659123343904 -0.1258321020751485 0.15711561748157
-0.1171469038601066 0.49206677812285365 -0.1117827942179044 0.1531033089702292 0.13619583666278012 0.3355585586673984 0.4533114902163581 -0.17328690899403695
0.03171631961523465 -0.12428834158560935 -0.15885397407970725 -0.11058037025558946 -0.15943784276872996 -0.19637769375474884 -0.27244285205093255 -0.009696485531518438
-0.15587307767553216 0.007609825595471047 -0.03276889299517308 0.027252398772023404 -0.050550593740689584 0.04271611027443136 -0.02643588946496552 0.04052676040352477
0.02383973601941544 0.04167277271472026 0.30306470974356037 -0.035175247883129125 -0.03724964402285577 -0.10694907281999791 -0.1260793300199714 -0.22850162820182504
0.02695840163508502 -0.2379942434387306 0.4400819472279902 0.20488203762135113 -0.010736550356714157 0.10203822278845479 0.14551075749493214 0.13173909276800805
0.0007080213053538974 0.06810836130946725 -0.13994177470552835 0.010528154616938564 0.25969044531119767 -0.12131835743028099 0.17046752192510561 0.06217694252693634
0.12116450077602314 -0.12962436011681575 0.1560690176954941 -0.08414809553595176 0.22850918266335846 -0.0022444019624909277 0.0029612579175726933 0.046229169863435934
0.055521683011032164 -0.13311572554277995 0.0645465953049991 -0.0564324074650479 -0.16687691498650406 0.03581579596720532 0.2504691588294514 -0.16557494009355928
0.07122759769242834 -0.09664040315518027 -0.03253297122524108 -0.06866988163822207 -0.16070327259438766 -0.2808982792048221 -0.08291963150945339 0.15911630438102464
-0.09160472418563836 -0.3008721060197215 -0.10298062475121036 -0.05718747009572442 -0.14945252343868323 -0.20713264288983507 -0.31428028570184924 -0.42426661040061947
-0.10715673268814438 -1.1372499533416083 0.12405152185885406 0.15358765913801647 -0.09663702537544065 -0.015524290142967169 0.043662349680070885 0.025296481802577438
-0.22930999026489857 0.20405072923054587 -0.3139412084168596 0.07180715576805724 -0.09129374236854064 0.09226998701225124 -0.2837066730398276 0.032077981101737846
0.11151385789696923 0.03257042132011124 0.00031119163828510017 -0.3363303760265012 -0.20611410276953987 0.14279056205518542 0.01888464060490265 -0.23045438755997313
-0.21635272985125947 0.18855810644404442 -0.19751449254138959 0.0002292039273356976 -0.007948139932832544 0.12788570999454443 -0.0319717600880233 -0.004011330945449408
0.14348848640517797 0.026845548640236465 -0.04557112858192107 -0.09673579298593155 0.10022932458701657 -0.3206585760162609 -0.4145023997529961 -0.0032639761937370234
-0.13413187413251856 -0.07353211742986177 -0.05696646052029498 0.04216961705009051 -0.088938843221183 0.2303374506691568 -0.36577270610187035 -0.21928748386793342
-0.13238497713916605 0.06104043526038368 -0.3662740410631742 0.0095940551593934 -0.058494276567996446 -0.08087333883257823 0.25305198415092034 -0.15167700980920742
-0.1645389004730686 -0.25487951416659865 -0.07920357823242406 -0.16603280328674086 -0.15386003853681782 -0.38537646832721706 -0.17830473778879116 -0.16892602068914903
-0.03229283520639072 0.08986820511669302 -0.03969479595267623 -0.08077108581741112 -0.06279626364468173 0.10458912269512555 -0.09403069012304754 0.16878407754385308
-0.1635259399839607 -0.14687384618224994 -0.01640582077829163 -0.10754983678048928 -0.16545977359653596 0.0208814391346409 -0.09791130446215807 -0.03431834921914383
0.012245003891483943 -0.033700806230588645 -0.0027675475950993795 -0.037042717677366874 -0.16293011801288193 0.13268447777350548 -0.10321774508356298 0.04798806656038592
0.1349677444930892 0.041382029184753866 -0.09584238932964126 -0.051193689727736316 -0.12200058134957081 -0.026361776595508184 -0.017265248187182516 -0.09474842014315937
0.09202164227443727 -0.06400317927949951 -0.03565535573803758 0.038958244593749 -0.10363248910011595 0.1641147406201609 -0.1253727138213709 -0.04763051459591359

bias f8 [32]
00000000: ff6e a8ea 6497 cb3f fb62 bb31 d098 b43f
00000010: 56a8 5097 463e 82bf 3adb b2d8 5470 703f
00000020: b8e0 8ec6 b8b9 42bf 21d4 ad81 c6c3 c0bf
00000030: daf5 acfe 0e00 b83f c4d2 4e9a 77e5 913f
00000040: 85f2 9e7e 57d4 d03f e464 9812 bf55 aabf
00000050: 4a7c 57bc 9063 c6bf 49ce 1ae3 b8e5 87bf
00000060: bca4 4ccf f566 ac3f bb51 56e0 69f6 babf
00000070: eba3 854f f4f9 d23f bcae 6f72 f15e c83f
00000080: 52f9 91a8 1297 c23f 4407 3467 47cf c23f
00000090: 9066 f2ec 162f bd3f 2297 46fa 7a25 c3bf
000000a0: 4cac f10e 60ce babf bde8 b598 1a60 8d3f
000000b0: ddb5 153c 9caa c3bf 6c1a 4fe8 d0a0 91bf
000000c0: 8779 bd75 fde9 afbf bbd4 e6a6 4802 a9bf
000000d0: 0d03 f510 d260 a23f 8c19 22a1 0fac 723f
000000e0: 095f 6d32 8f3d c43f e93f bcb4 f07e a3bf
000000f0: c9d6 9776 5a5c c8bf c626 c816 1625 92bf
0.2155576844969502 0.08045674528274198 -0.008907844059724262 0.004013377601203067 -0.0005714561676688689 -0.13097459156020455 0.09375089376131687 0.017476910393912318
0.2629603134662733 -0.05143544294350891 -0.17491349407552753 -0.011668629103360877 0.05547302394399753 -0.1053224728296475 0.29650600210021477 0.19039743507106788
0.14523537856070817 0.14695065058918477 0.11399977955661655 -0.14958131046767514 -0.1047115360722028 0.014343459878308424 -0.15364411290958815 -0.01721502702619164
-0.062332077620101116 -0.04884554898618761 0.035894932336765085 0.0045586214565730525 0.15812864267604024 -0.038077852308674505 -0.190318401247785 -0.017719597950452103

alpha f8 [1, 32]
00000000: 1adc 8a80 c700 ed3f 0caf 5911 4134 a1be
00000010: 8d95 62b0 d177 40bf 5e45 d6bd 230f b0be
00000020: ad8e 04cd ffac e13e 29e3 891a c28c e63f
00000030: 5815 d3c0 585c c53f 298c aff0 de7f 97be
00000040: 5f40 b9b4 74a0 e63f f62b 57b5 2f71 e33f
00000050: 5d54 4a8d d8e7 ea3f de3c 8070 1be4 413f
00000060: c407 f4ac 09e5 95be 46ab a5ff 0c21 eb3f
00000070: 89ec cef0 082a b0be 941e 7565 f6bd bf3f
00000080: d9cb e2b4 144e 8dbf 19b6 802a 5afc ca3e
00000090: 4a0a 1fa3 ffbb e83f 7b7b 7a62 59b3 f03f
000000a0: 5e15 2f7c 7717 e93f 0d8f 6ea2 aad1 19bf
000000b0: 24b1 96f8 4139 e53f 6951 a243 8dcf a5be
000000c0: 39c0 5bcc ddb0 c83e dd2e 63db a6af ea3f
000000d0: 828c 69dd 4301 acbe 8e76 384b 742f 013f
000000e0: 6103 9c98 905b da3f d9a4 5143 d951 d13e
000000f0: 38d4 0ce9 ccf9 eb3f 0a7d 4d89 ce64 e63f
0.9063451300233993 -5.12722666724001e-07 -0.0005025647995082081 -9.571992828121124e-07 8.428467851268865e-06 0.7046823995907278 0.16688069739590605 -3.501697711223283e-07
0.7070868997343601 0.6075666944319653 0.8408015021874565 0.0005459913236353327 -3.262561393964023e-07 0.8477845185383124 -9.634613349202565e-07 0.12399234749784177
-0.014309083719444548 3.2169521837685877e-06 0.7729490457498482 1.0437864157499621 0.784114592119902 -9.84917065652258e-05 0.6632394652602085 -6.500109812784677e-07
2.943382784496875e-06 0.8339418682967011 -8.346123035570589e-07 3.2778488641788386e-05 0.4118386736227447 4.12934337133097e-06 0.8742432166824363 0.6998055154507778

beta f8 [1, 32]
00000000: 457d 7221 bf35 ce3f 528f cf32 e465 a13e
00000010: d5f9 71b8 1b7a 40bf 55aa 455a 78cb 973e
00000020: 4e4c 8968 1caf e7be 1f9a 0d54 1417 b9bf
00000030: 5a21 a622 d6a4 ad3f 063e dc32 71ec 92be
00000040: 9a1b e689 dc03 c33f 8806 3f7b 2fe2 c13f
00000050: 0a02 f1e5 a579 c63f cb64 4552 a823 42bf
00000060: a19f ddfc 1fc3 953e 7faa 3949 98f8 cabf
00000070: ffe7 a992 3ec3 af3e a052 ad84 9c8d 92bf
00000080: df75 e566 97f8 8cbf 0744 5d87 fe30 cdbe
00000090: 19c6 a134 7461 c8bf f5c6 4f4c 8c33 d53f
000000a0: 5096 6009 41ad bc3f 31ee 1022 c9d5 1b3f
000000b0: c21d 8292 92a6 c03f c6af ff39 55bf a5be
000000c0: ecee fbb1 1db4 c8be 62a7 a01b 70f2 c63f
000000d0: d384 0e54 9731 abbe 52a6 6642 5a1a 013f
000000e0: 8bc4 9bae c4a5 c3bf 7557 dd80 2eb9 ccbe
000000f0: 60d0 c76a d56e c93f 2031 d2d2 cbbd c33f
0.23601521619000657 5.185012007494206e-07 -0.0005028376916838504 3.545702276427412e-07 -1.1293424237701418e-05 -0.09800841381147805 0.05789822743378421 -2.819836478632011e-07
0.14855534299223622 0.13971513288383997 0.1755874035607266 -0.0005535671121307482 3.242821521227386e-07 -0.21071151328517954 9.466014366376218e-07 -0.018118329618419637
-0.014146025493284973 -3.4798841238932657e-06 -0.1904740578643647 0.33127124264056756 0.1120186469930442 0.00010618248099175037 0.13008339074825243 -6.481228531618936e-07
-2.9448959962800416e-06 0.17927361821176208 -8.104358714019963e-07 3.2621268746990534e-05 -0.15349634671978082 -3.424092034724536e-06 0.19869487489598026 0.15422961992261097

weight f8 [32]
00000000: 0fcb 7120 393e f03f ab2b b833 5bb7 c03f
00000010: d6b9 4bd6 7d09 e83f 64d1 2c93 b5f0 de3f
00000020: e65b 0a85 454b e43f 73c0 cce9 ffcc e83f
00000030: 822b 3e50 1887 e63f 2371 d49a 533f e23f
00000040: 77ed 4069 6f85 e83f 3e38 84f6 eb4d e43f
00000050: 6137 9b06 f3c5 ed3f 1811 0abf c2e9 e23f
00000060: a0ed 77cb 1952 e23f 1353 78ca fa46 f13f
00000070: 25d3 e102 b6a4 e23f 1a16 508c c697 de3f
00000080: c862 8b39 2f67 d83f 635c fb18 7e70 d63f
00000090: c2cc a52b b868 ec3f acb3 5e27 6a21 ed3f
000000a0: ccae 94b4 ca6d eb3f 7245 9913 bb9e dd3f
000000b0: 5a82 3058 7c25 e73f d39d a35c 2390 e73f
000000c0: 8acb 8cc1 5386 df3f 5693 cb12 37d3 ec3f
000000d0: 93ce 9b2f 32d6 df3f 6ef3 f533 84e0 e63f
000000e0: 9765 0651 fb51 e63f b02e 8a30 0d08 eb3f
000000f0: 666c 27c1 05d7 ed3f 9366 e793 b83c eb3f
1.0151911990512337 0.1305955889259541 0.7511586366143159 0.48344172833028254 0.6341884230085924 0.7750243727114267 0.7039910857432548 0.5702302955647024
0.7662884765372117 0.6345119299674093 0.9304137352971616 0.5910352450596603 0.572522065543513 1.079829016588694 0.5826063209811748 0.47801364614892494
0.38129788035943735 0.35061600150715416 0.8877831318372034 0.910328938383477 0.8571523215263936 0.46281315721451854 0.7233258936358411 0.7363449868543576
0.4925736799370318 0.9007830969900208 0.4974484887054384 0.7149067892893137 0.6975075323600092 0.8447328517954329 0.932497861150648 0.8511622322796079

bias f8 [32]
00000000: 0a20 9e49 9b1f cc3f e0d9 5669 ca3e 6cbf
00000010: 9970 7bd3 601d ad3f abf9 f86b 6f76 95bf
00000020: 63ef a179 fe29 b83f a99d 3139 6ce1 cabf
00000030: 5db5 ed19 fb31 b2bf 70ee f14a 63c2 bbbf
00000040: 3155 016e 81b6 c13f d4e0 27ca 8f5e 6ebf
00000050: bc2a 62b7 12ae cfbf 7966 689c 705a b2bf
00000060: ec95 8096 f857 c3bf 6182 58b8 3bce c33f
00000070: 9642 07de b859 91bf ae8d 9e40 1084 9dbf
00000080: d16d dad6 6eec b1bf 87bf 1e82 c965 95bf
00000090: ab0c 8f4b 9285 ad3f f068 9da3 0d69 c8bf
000000a0: b3a3 f4f8 619e c8bf 2fa2 c2f2 72ff 8abf
000000b0: 0ee3 a9c0 6728 c2bf 39a6 50f9 5ad2 a0bf
000000c0: 61cf 5262 a952 a1bf f646 e367 3043 cabf
000000d0: a589 404e 6ad0 a5bf 2ac0 bd53 6a20 91bf
000000e0: ef18 ac88 e32f 873f fd35 0238 c114 a53f
000000f0: 2b6a 96e7 150b d5bf 3671 d421 a9f1 c63f
0.21971455664265732 -0.003447909674572744 0.05686476308412231 -0.020959607091066406 0.09439077825112245 -0.21000435631434058 -0.07107514746686179 -0.10843487338746072
0.13838212844226797 -0.0037071998970042794 -0.2474997897555421 -0.07169250315237176 -0.1511221632837726 0.15473124028450783 -0.01694382529405177 -0.028824094718982778
-0.07001393075409303 -0.020896099631215328 0.057659694407925365 -0.19070597161300595 -0.19233345657383225 -0.013182542832809478 -0.14185807139781342 -0.032854884084667586
-0.03383378339040522 -0.20517544815680083 -0.042605707218416534 -0.016725217209966704 0.01132180939522384 0.041173971259109245 -0.3288016091916314 0.17924989845131173

weight f8 [32, 32]
00000000: 14a3 6e05 e867 8d3f 4556 5705 9990 a5bf
00000010: 8b56 e9fa 10be c53f 7460 1674 8e6c 8bbf
00000020: 2c3d ecb3 29e3 b53f b9dc ced0 080e c4bf
00000030: 913d c131 af34 c1bf c627 b163 40c3 c2bf
00000040: ff47 452c 0d07 c03f a722 a6c6 5345 cbbf
00000050: c715 dbc7 f788 e1bf 0f78 cacf f688 a4bf
00000060: f001 9c26 5ead bdbf 42e1 b558 433b c0bf
00000070: f82d 85b3 306c 9ebf 9d1b 200d 45d1 b9bf
00000080: 1317 b5b7 2645 b8bf e931 d212 6441 a5bf
00000090: fda1 4cac 2cca d23f 312f 065f 6e9d c03f
000000a0: b9f4 34b8 1494 d4bf 10ff 65c3 cfe6 a8bf
000000b0: 0e25 5a6a be90 b2bf 7fcc e588 c918 babf
000000c0: c1a0 d989 6424 abbf 8a88 d98b 88d4 d9bf
000000d0: b4ee a161 6836 6e3f de9a 12da 60ed b83f
000000e0: 7cdc 8ec1 8aa2 bf3f 8f18 e43c be7c c93f
000000f0: 341b d3e7 367d dabf 77d0 0d4c e345 cf3f
00000100: 47ae 581d 8c90 d8bf c270 4db3 1d98 b13f
00000110: e42b 5f63 f741 d73f a59d 7a8c f477 c73f
00000120: d838 618e e22c cc3f 0815 7aa0 e67a c03f
00000130: c8c4 8259 9084 cc3f aeca 2e40 2e83 cf3f
00000140: 069e 28e7 7b99 b83f 368f 04da 39dd b4bf
00000150: df75 f595 13ab b3bf 9cf9 b12b 6f32 bc3f
00000160: b14a 9dba a109 bf3f 7d15 bee3 785a d0bf
00000170: 23fc d881 e9cd c83f 2260 be60 f8d9 c43f
00000180: 6150 6593 e6f0 c33f 00c1 90c7 863e c03f
00000190: bd2e cb80 8083 bb3f fd2c 3ae0 3b87 c33f
000001a0: 6da5 6c85 37c6 d63f daaa 06ed 5003 d03f
000001b0: 7315 e991 f820 cdbf 4bed 70f1 2f59 d33f
000001c0: a00a 536e 0045 c43f 045c 52af d1e0 a43f
000001d0: 1202 966c e301 b83f df55 5191 2750 cc3f
000001e0: dc0b 64b1 e2d8 ccbf a7a1 cd4f fb0f ce3f
000001f0: a4a1 e0ab fe2c da3f 007d d246 a68b cfbf
00000200: 523a 1e50 a0a3 e23f f80d c0c8 61e7 9cbf
00000210: 4f5d a507 d768 afbf a65e 2703 0d4a c1bf
00000220: b45e 50d7 4ce9 a33f fca2 72a3 77f8 bcbf
00000230: c081 fab7 ec67 c0bf 7c04 29cf 75ed a0bf
00000240: 459b 97e1 268c d83f 1f0f 6ba6 3a38 bc3f
00000250: 4109 db1b fda8 bcbf eae8 f78f efe1 d1bf
00000260: 31cc 6feb e133 283f b931 7f9c 8b9e c13f
00000270: 9e55 85f6 de8c bfbf 6c52 db78 758b bdbf
00000280: dc1f 7b9b 112f c9bf 10d0 4513 c3e8 a8bf
00000290: 54c1 18e4 01e0 ad3f 257d aeb1 27b0 e3bf
000002a0: 220a 12c6 6ca4 cfbf 04d5 8516 719e bcbf
000002b0: f7f3 a775 3bca d1bf aefb 00cd 5507 c2bf
000002c0: 6710 0e58 074b 98bf 2a28 b832 084f ca3f
000002d0: 9a47 f40e bae2 c4bf e9fc 83a9 fbab ccbf
000002e0: cd8f f976 0a7e 9b3f 63e0 2698 5f6b bfbf
000002f0: a14a eacd 0152 aebf 6a39 65ac 665e bc3f
00000300: 0ddf 2f17 d630 c1bf 9953 d1f9 c491 a8bf
00000310: 8310 0790 1caa 96bf a250 dc8c c18b cc3f
00000320: fe97 20bf f3ff b0bf ef34 1585 e16b b9bf
00000330: 8588 c6ab 6ad3 bbbf 90fe eabd 44b3 c8bf
00000340: effe 0d5f adca b9bf 4aca ad51 5cec c13f
00000350: 47d6 0270 8efc b8bf 99de dd5f 995d c43f
00000360: 6e53 1d2e 4580 cc3f 4bab 59ac bc4f b3bf
00000370: 132b 8455 bd49 a0bf bf55 6afc 3e05 b03f
00000380: f0ea 9457 6de6 a2bf 8125 b7b7 2916 b23f
00000390: 0287 0000 fb29 b6bf 7376 8706 31ab b4bf
000003a0: 1a88 17a2 993a abbf dfe7 31ef 9521 c93f
000003b0: 6be9 2362 a2c2 b0bf 6dca defe 0547 c1bf
000003c0: b175 1ddc 1d39 aebf 8db9 7eba fa7c b0bf
000003d0: 1bdc eead 6e29 cf3f 0f87 5116 114d c3bf
000003e0: 6607 dd39 7f53 a83f e0a9 870e b88c d03f
000003f0: 6a27 d236 1a9d 9ebf b65e 59ee f1a4 be3f
00000400: 2f1c 3965 82b5 c03f 388e dc1e a198 d43f
00000410: 9f7b 413a f5aa cf3f 94e5 0ea3 4272 d03f
00000420: 426a 978c 1001 c03f 5edc 5928 5713 923f
00000430: d3d7 6b7a ce77 c1bf cff2 9139 a5b2 cf3f
00000440: b37d 3b26 91da d73f 8dd8 8524 a50c cabf
00000450: 2036 2b97 386d c3bf 83aa 5877 edf8 b53f
00000460: 0e39 2e8e 87c0 ca3f 23a0 3018 8dce 93bf
00000470: d1af 4335 cdfa d03f c873 4317 5d0e a8bf
00000480: d0e9 3828 0c5e b33f 6994 9528 2946 84bf
00000490: 7c78 5061 6b5b b13f 622f f237 b162 aebf
000004a0: ee81 28a0 0d47 abbf 04b8 44d3 291a dc3f
000004b0: 1938 d93b 1ad4 a93f b690 9f32 05b5 9f3f
000004c0: cbf8 8d8c 86e1 b73f cfc8 5906 c459 d0bf
000004d0: 5282 964d 138c 9abf 4077 b112 d711 e13f
000004e0: 4d96 6ff4 aa44 bbbf 7815 65f6 a065 d23f
000004f0: d79f 9053 de76 b43f 87ab 0023 c9ac cd3f
00000500: 6e68 e826 dea3 af3f c7f4 142c 6129 ca3f
00000510: e1ce c4a4 f632 b9bf 4eb4 4ba2 d64c c9bf
00000520: 2193 618b f678 c03f bf08 6b4a 1ddf c63f
00000530: 8ffd 4715 748d 913f 06f0 bb51 2091 bd3f
00000540: db9d 60ce 0060 c73f 1ee9 d665 b781 b33f
00000550: dfe5 6476 379a e33f 16c4 9c4e 9bae c6bf
00000560: 8d6c 9b44 566d b73f c8e7 be62 ed41 bebf
00000570: 7d51 aaa3 3452 c2bf f8b1 0652 5225 c3bf
00000580: eecc 457e 52c8 c13f d6a6 8490 7e04 d1bf
00000590: e05e 9749 9880 c8bf 1436 35b4 2258 ca3f
000005a0: 2c2d 9e2a 9b55 d13f ea51 6eb7 5641 bfbf
000005b0: 3baa 9fc6 7510 ccbf 57d3 3712 1f94 d5bf
000005c0: d44c a751 52f2 abbf 63e8 753b 1cc9 c4bf
000005d0: 5652 b8d8 2e1b b8bf 52d7 3e57 5938 dabf
000005e0: 8298 50cb 43a3 d0bf f331 0452 9eab d6bf
000005f0: b7ed ef67 fe8e a73f 14dd 4da8 db24 d03f
00000600: edeb 06dc 46a6 d13f 7853 5ceb 9b3a d63f
00000610: 6536 65e4 d3cb d83f 3d61 5312 f108 7d3f
00000620: fe06 d5b8 7631 cc3f 957b 02e7 bf56 cf3f
00000630: c665 591a 8d54 d63f 60ce dc7f 3608 d23f
00000640: 50c1 7c1f 97f8 d63f ce34 987d 54cd d0bf
00000650: 70bf 0b06 d2e9 a6bf 9a62 0b1a c534 713f
00000660: 9d38 6f20 3084 c13f cf4b 4f8d ae42 83bf
00000670: 5f7f 3ac7 d77e d93f d2f9 657c dd59 bd3f
00000680: 8ca7 d536 0bdb bd3f 828d b57e ff52 d13f
00000690: a6a8 7c2c f996 953f 2dcb cef8 0eb2 a93f
000006a0: 60ae 3b97 cf4a a33f 4cf0 ec83 89f6 cd3f
000006b0: 0cad 16df efb3 b93f 3765 e724 0c94 d23f
000006c0: c6b8 e5f6 511a b3bf c583 4295 c2b4 d0bf
000006d0: d0c9 cf70 d176 a9bf 617b e8cc 017c d33f
000006e0: 4f98 3d09 34b0 bcbf 0b55 5899 1849 e13f
000006f0: 96ad a363 8bd5 c33f 3671 8129 d93b d13f
00000700: dcf1 7663 0fd3 d13f a0dc 7054 6ebd bebf
00000710: 28bb 50f9 2251 973f 4995 a54a 76ab a83f
00000720: 7d8a 0864 fc56 863f 36cc 80d0 6814 a83f
00000730: a36e 6d5d 1fae d73f ed46 2ff8 c9ac c5bf
00000740: 5d7f 24e8 d4ba d83f ec7c b628 9c45 e1bf
00000750: 1e0b 3f6b bb84 b4bf c8a2 31df c146 ce3f
00000760: 52f9 1495 74d0 c9bf 10f0 d6a0 9208 88bf
00000770: 861e ee74 2a8c ca3f 18a7 0d7a 56f9 c0bf
00000780: cd37 1aea cdef bc3f ea70 6480 f17c ad3f
00000790: 57c8 5907 5d18 afbf 1b3b f0b2 5150 903f
000007a0: 7673 c42e f50d 64bf fff7 ffcb 1792 aebf
000007b0: 75b1 2525 22d9 a0bf d240 ec1e 5de1 c7bf
000007c0: 6544 82ea 8232 b03f aaf0 fada 259e cdbf
000007d0: e039 6f6b 3fcc b63f ae4a cf4a 12fb d43f
000007e0: b62a 6d88 f237 943f b0d9 0065 fb9b d03f
000007f0: 58bb b714 6edd b73f 61d8 668b 2ab0 9c3f
0.0143583418519753 -0.04211881818961819 0.1698628640321441 -0.01339064876337679 0.08549748079916658 -0.1566782970018943 -0.13442029885707688 -0.14658360355161743
0.12521519338275763 -0.21305319976479106 -0.5479697135385145 -0.04010745321760122 -0.1159266323338739 -0.12680856544080582 -0.029709588009877635 -0.1008494526905523
-0.09480516419452227 -0.041514518067831414 0.2935897524462517 0.12980441703654713 -0.3215381430525884 -0.048635952570292074 -0.07252111526954172 -0.1019407233450682
-0.05301202948322859 -0.4035970082969774 0.003688053007008774 0.09737210582771236 0.1235739443353498 0.19911935780709597 -0.41389248503803633 0.24432030881473896
-0.38382246843204765 0.06872735621931539 0.3634012670924547 0.18334824427914245 0.22011978103768715 0.1287506373957188 0.22279552813191672 0.24619081624913036
0.09609197991868976 -0.08150064060879178 -0.0768291703329491 0.1101445657422801 0.12124071889892708 -0.25552198639373797 0.19378393974508965 0.16290192340670823
0.15578920552309497 0.1269081568184518 0.10747531074883461 0.1525645108089079 0.35584819822050556 0.25020239970278413 -0.2275686943486722 0.302318559439034
0.15835576426441822 0.04077773347051308 0.09377881432556759 0.22119612308112743 -0.22536882077846954 0.23486272236483538 0.40899626526745636 -0.2464492650806065
0.5824739041143607 -0.028226402166195513 -0.06134674042066967 -0.13507235197061113 0.03888931396812492 -0.11316631069588462 -0.12817152961089384 -0.033061677492249836
0.38355419188012646 0.11023298800415347 -0.11195356302326777 -0.2794150262776741 0.00018465168770340345 0.13765092030952333 -0.12324327009749544 -0.11540922356227562
-0.19674892513125897 -0.048650833227753876 0.05834966573127312 -0.6152533026069348 -0.24720534964952018 -0.11179262924072836 -0.27796827783441763 -0.140848851298839
-0.023723711728522192 0.2055368659642352 -0.16316915254770664 -0.22399850632789445 0.026847995292328442 -0.12273213829655698 -0.05921941412556931 0.11081544598457574
-0.13430286533525085 -0.04798713254482507 -0.02213329915117913 0.22301501634558912 -0.06640551963991467 -0.09930238246052502 -0.10869471257913872 -0.19297084115350005
-0.10074885912581143 0.14002565372682546 -0.09760370478292045 0.15910641842832687 0.22266449691474172 -0.07543544013757957 -0.031812588395118045 0.06258004820332184
-0.0369142693911807 0.07065067992438935 -0.08657807111788077 -0.08073717507746796 -0.05318145850812091 0.19633745364609376 -0.06546988388064327 -0.1349799627765437
-0.05902951538039803 -0.06440703442669911 0.2434519147188617 -0.15078939046639347 0.04751203137722264 0.25858880442561194 -0.029896173091891333 0.11970436162061557
0.13053922598393927 0.321815757883289 0.2474047216846573 0.25697389529849457 0.12503249039476044 0.01765190299780916 -0.1364687059173649 0.24763932524719798
0.3727152703631546 -0.2035108974775465 -0.15177066212929535 0.08582958377579968 0.20900053446207106 -0.01934261760848711 0.26530771447755536 -0.0469845858476457
0.07565380079260042 -0.009899446059259813 0.06780120015943852 -0.05934671218810085 -0.05327646808678198 0.439096885983304 0.05044633846829089 0.030963975157548083
0.09328499728687516 -0.25547886486232313 -0.025924970255461872 0.5334277501203601 -0.10651653735802676 0.28745292722700055 0.07993878879699366 0.23183550080406354
0.06179708695363294 0.2043878045314271 -0.09843389055896125 -0.19765742230029776 0.1286914997646358 0.17868391164490124 0.017141164587881227 0.11549570079290569
0.1826172836019698 0.07619806515041147 0.6125752746949579 -0.1772035726403664 0.09151209998110428 -0.11819347058090479 -0.14313371650190368 -0.1495764637487722
0.13892584958703175 -0.2658993159590016 -0.19142440408062722 0.20581468390666713 0.27084998285200146 -0.1220907399968564 -0.2192523212282412 -0.33716561106785065
-0.05458314177271864 -0.16238739875172134 -0.09416477957740574 -0.4096892692572186 -0.259964893865238 -0.3542247582379609 0.046012830913209006 0.25224963603928185
0.2757737301541841 0.347327213138946 0.3874406557486963 0.007088605581167248 0.22025951409346328 0.24483488826532765 0.34891059468426666 0.28175127493452656
0.35892274928030066 -0.26253235116093954 -0.04475265811731688 0.0042007159506388895 0.13684655746186972 -0.00940452927344451 0.398366875228012 0.11465248381680418
0.1166235932229524 0.2706907975573004 0.021083730068462224 0.05018660342411461 0.037680136881900195 0.234086217324036 0.10040187069414602 0.29028609851737336
-0.07462036397712088 -0.2610327203383885 -0.049734635373073766 0.3044437886291487 -0.1120636484680244 0.540172862531706 0.15495436063006868 0.2692778497055487
0.27850708688108994 -0.12007798730415908 0.022770449130059905 0.04818315182891781 0.010908099940086341 0.04703071160511067 0.3700025951745635 -0.16933560007469542
0.386403300000884 -0.5397473139927604 -0.08015033119503953 0.23653434179438748 -0.20167405394927101 -0.011735101254878116 0.20740252217750682 -0.13260918578753755
0.11303412404433218 0.05759386722840694 -0.0607327529404677 0.015931393190892523 -0.0024480618213957262 -0.05970835080368885 -0.03290659621675022 -0.18656505594163392
0.06327074265779371 -0.23138879005808138 0.08905407307540925 0.3278241854251672 0.019744672371681836 0.25952038634877805 0.09322250371745378 0.028015770681769307

bias f8 [32]
00000000: 8c88 fca5 a402 cb3f 4433 fcc9 2bdf c7bf
00000010: 3107 13f9 59bf be3f 1285 ac5a 4a61 953f
00000020: 2910 6aec 92a8 afbf af43 1af4 c2c4 c1bf
00000030: 5209 6473 20ed b0bf 76a5 68c8 05d6 af3f
00000040: da87 6b86 4bac a3bf 61ac b802 f38c 72bf
00000050: 976e caab 0a58 b6bf d21c 4382 7b73 a43f
00000060: 039b 3901 6b5f c23f dd93 430c e1e2 a73f
00000070: 7a69 7f2f 2b95 a3bf dad2 34d3 ced7 c4bf
00000080: 0e21 e935 9ec3 c4bf 5764 bea1 7d52 b5bf
00000090: 1094 870a 8aa8 97bf 7c51 8cc7 420a 93bf
000000a0: 4718 5051 b4a0 b3bf 7e79 0f27 78f7 c33f
000000b0: 18ce a667 baa2 bd3f bbda 802d 7283 78bf
000000c0: 25ee fca3 4cdd b7bf 31bb 4683 1250 acbf
000000d0: 0bd9 1357 b148 c63f 7658 ddfb 2d0e adbf
000000e0: 70b0 f94c 44b0 c43f 4f39 0169 a0cd 94bf
000000f0: 50a8 31bd acc4 89bf eefc 0607 34c6 cbbf
0.2110181627732043 -0.18649813997799403 0.12010729151645873 0.020878946098609914 -0.06183299194256648 -0.1388171855838016 -0.06611826722295192 0.062179737771951446
-0.03842388168210649 -0.004528950939440697 -0.08728090948209864 0.03994356122125854 0.14353692588630204 0.046652825114314324 -0.038247441814479324 -0.16283593476113972
-0.16221978790623165 -0.08328995894261602 -0.023103863613773312 -0.018593829564524253 -0.07667090401818753 0.1559896651005594 0.11576428442531783 -0.005984731680703954
-0.09322051051724907 -0.05529840328687497 0.17409340621788547 -0.05674880694884703 0.1616292358261293 -0.02031565323732681 -0.012582158588163278 -0.21698618262414676

alpha f8 [1, 32]
00000000: 41a5 22c8 1696 e83f 6321 b992 5441 ed3f
00000010: 33c5 ded7 2b6e eb3f ae6d 211a 984d ad3e
00000020: 2a06 c21d bb35 db3f bb4e 7350 bfc9 e83f
00000030: 51f3 04cc a50c db3f 71cd 0a6c 6127 e23f
00000040: 63f7 6608 c99d d1be 9685 eb2b a184 e13e
00000050: 1155 d67e 5b23 b5be 98d5 ade5 fb33 de3f
00000060: 6885 4845 5543 e33f b71a 9c94 c221 d73f
00000070: 0fb2 aa68 d993 df3f e570 e572 0357 bc3e
00000080: 2453 4dee b83f d1be a715 e4dd ff6e e03f
00000090: b7b7 fa12 352e eabe 1648 4d80 7d08 a5be
000000a0: ac5d 5093 da9f e23e df37 11ec 8f05 e83f
000000b0: a829 c42e e1bc e23f 9c27 b836 3e62 ddbe
000000c0: e2a8 579f 704c d43e 885f 43f5 ad9f de3f
000000d0: c324 ea7d a9ca e73f 51d5 c50e 6a67 d1be
000000e0: a644 707b ab23 ef3f 6102 4326 da89 c23e
000000f0: 7f57 f7c3 b2a3 4cbf 0881 954d c052 e23f
0.7683214100735897 0.9142248979269819 0.8571986404623771 8.73300497038407e-07 0.42515447526975214 0.7746273585603015 0.42264695094836663 0.5673071966361204
-4.200064842084037e-06 8.353273526609175e-06 -1.2599298274453315e-06 0.47192284993737976 0.6019693711461231 0.3614355517642411 0.49339900227894956 1.6891894563864223e-06
-4.112461941503652e-06 0.5135497411544535 -1.2483833955325445e-05 -6.26837164045002e-07 8.880819772057558e-06 0.7506789789856575 0.5855565942195442 -7.0056347385524644e-06
4.839561815720411e-06 0.4784960646770675 0.7434890231389989 -4.149427905599427e-06 0.9731042300137644 2.209959619831317e-06 -0.0008740065458663209 0.5726014628708365

beta f8 [1, 32]
00000000: f103 8351 2aa0 d03f 3803 bc44 6dfb cd3f
00000010: 64b2 5648 64f6 d93f 77d9 d550 6b0f a2be
00000020: 6308 e357 6c0d b33f 4bdd a5ff d73a c43f
00000030: 4d58 cba4 be8e bd3f 7fac 3173 f7c2 b53f
00000040: b8d9 39f7 1f09 bf3e 99f2 d831 958f e13e
00000050: 914a 4725 440a c63e 7542 aed3 8904 b63f
00000060: 4c16 9266 5ed4 be3f 7309 7ba0 432b b3bf
00000070: 4d90 894a da6f babf 744a 1d87 4ac7 b6be
00000080: 6abd c362 bb09 dcbe d5ad 7685 82ef b1bf
00000090: a10c 69f4 0947 eabe 354f 6961 bd27 a23e
000000a0: 30e1 df19 d3e2 e3be e9f4 c46c 8e9e bc3f
000000b0: a767 755d d8af c03f 95d7 8824 184c dd3e
000000c0: ef97 c06d 2e42 cdbe 1d32 3b50 cf00 aa3f
000000d0: 2ea5 0f9d f311 c83f 9e97 8c4d c2a7 d1be
000000e0: eaf6 e9ea 538f d03f dc4c 5733 a545 c2be
000000f0: 877b 8509 bb90 4c3f a917 b738 0fa7 b63f
0.25977571449408204 0.23423543792889645 0.4056635576660368 -5.382368343648904e-07 0.07442357202219933 0.15804576857383731 0.11545936129854902 0.08500620424608661
1.8498685364888643e-06 8.373675480227455e-06 2.6273849391492486e-06 0.08600675027833822 0.12042798999944998 -0.07487890880569185 -0.1032692367530796 -1.3577032657764836e-06
-6.684783823581725e-06 -0.07006088026417186 -1.2530086349055095e-05 5.410681208164278e-07 -9.482399772040533e-06 0.11179437785627368 0.13036636889847594 6.985007140294492e-06
-3.4878874952846553e-06 0.05078742842087911 0.18804783982276646 -4.209353584616174e-06 0.2587480348664558 -2.178198338789745e-06 0.0008717454211753941 0.08848662504814676
